src/model/model.pth (torch, 17216 bytes, 4 tensors)

linear1.weight f4 [256, 11]
0.009300774 -0.014669183 -0.024861062 -0.083409004 0.053680304 -0.31406328 0.19704562 0.3846447
0.4712133 0.46913546 0.04405796 0.10647002 0.1154471 0.30446994 -0.39768842 -0.058391616
-0.028195646 -0.49098146 -0.21712886 -0.3629357 -0.39665094 0.1274461 -0.31531596 -0.29037178
-0.37046036 -0.23998755 0.12124338 -0.53165203 0.09295153 0.029883964 -0.5031208 0.23465367
-0.29304612 -0.25184366 0.0062885606 0.3373448 0.083988726 0.27889818 -0.082926795 0.03729904
0.13967656 0.19014275 -0.16102877 0.22432567 0.4370827 -0.24403827 0.053568352 0.27618065
0.3190225 0.102998145 -0.23025557 -0.11804984 -0.22539447 0.11507745 0.26768076 0.3472261
-0.055489395 0.0015008555 0.11820342 -0.32959166 0.3089886 0.13146849 -0.28310898 0.22749192
-0.4874975 -0.11788405 -0.35617816 -0.3289806 -0.06183776 -0.09803239 -0.018143484 0.12948701
-0.3113672 -0.2902708 0.22808373 0.087588094 -0.16799998 -0.6192539 0.08592682 0.24793148
0.023563912 -0.3574276 0.26055267 -0.381183 -0.062012646 -0.34643078 -0.20428815 -0.47206247
-0.3938582 0.3790038 -0.21938217 -0.4547192 -0.1728405 0.2480131 0.20921968 -0.48217994
0.100925304 0.21978964 -0.117941365 -0.15263788 0.3055032 -0.36543715 -0.24534138 -0.020556169
0.0051514464 0.13663322 -0.40135995 -0.075551465 0.07934801 -0.34023795 0.11063687 -0.5767565
0.24612762 0.09922678 -0.51923484 -0.11911186 0.1819354 -0.19353299 0.42205253 0.003007263
-0.31888002 0.022179015 0.11539893 -0.15695189 0.012338196 -0.037328854 0.25556356 0.0554723
0.38037163 0.45104775 0.18420659 0.17522608 0.2367379 -0.19222978 0.12342578 -0.22865385
-0.1875984 0.15415546 0.32353306 0.53284997 0.26371938 0.047120113 -0.2054997 -0.0038071454
-0.020947305 0.013721116 0.04892683 0.43174908 -0.32487598 0.17943123 0.029045545 -0.31768984
0.15982072 -0.3406374 -0.044094738 -0.7778697 0.07340299 0.021792974 -0.29519442 -0.03914184
0.21758601 0.33183444 -0.051628556 0.34768704 0.39092708 -0.41046807 0.1498885 -0.28601933
0.22754969 -0.027320392 0.1656913 0.355864 0.41760686 0.08179279 0.2782258 0.33281443
0.11126518 0.0012227381 0.30832052 -0.23123479 -0.13886467 -0.03749227 -0.28023374 0.25448558
0.12522832 0.21965678 0.15977037 0.4114829 -0.65869313 0.56368774 -0.23405789 0.021992192
-0.04264466 0.2501082 0.40635577 0.037539884 0.17889096 -0.08969532 0.18895808 0.3720001
-0.034587793 0.09885584 -0.26835808 -0.13897994 0.12298917 -0.22255614 0.23172955 -0.2892465
-0.13272588 -0.1735669 -0.21142608 0.44994032 -0.5542071 -0.17188576 0.26791924 0.07597138
-0.41521806 -0.6686058 0.1160224 0.26230708 0.3937668 -0.20556776 -0.052478872 -0.22083856
-0.17209399 0.3993091 0.08890226 0.25638178 0.120668344 -0.32845354 0.047368374 -0.297936
-0.046223342 0.10981644 -0.12749752 -0.31378582 -0.2509451 0.29893824 -0.16268402 -0.105730504
-0.3678477 0.37152544 0.4486183 0.4564061 0.095138066 0.07111278 -0.20722346 -0.086327985
-0.103502296 0.40515855 0.23621674 0.37939185 0.41843444 -0.023732634 0.051275134 0.08514242
00000000: 4662 183c 0357 70bc 6da9 cbbc 57d2 aabd
00000010: e1df 5b3d e7cc a0be 54c6 493e 26f0 c43e
00000020: df42 f13e 8632 f03e 1f76 343d f40c da3d
00000030: 876f ec3d 7ce3 9b3e d19d cbbe 0c2c 6fbd
00000040: 8efa e6bc ec61 fbbe 0757 5ebe b5d2 b9be
00000050: d515 cbbe 3b81 023e 1871 a1be 9cab 94be
00000060: fbac bdbe 4cbf 75be 734e f83d 591a 08bf
00000070: 5f5d be3d 37cf f43c 86cc 00bf 0d49 703e
00000080: 240a 96be a7f1 80be 4510 ce3b 75b8 ac3e
00000090: 4802 ac3d becb 8e3e 86d5 a9bd e1c6 183d
000000a0: 5f07 0f3e c8b4 423e bae4 24be a1b5 653e
000000b0: 4ec9 df3e 2be5 79be 7d6a 5b3d 8d67 8d3e
000000c0: eb56 a33e b1f0 d23d 1ec8 6bbe 1dc4 f1bd
000000d0: cfcd 66be baad eb3d 740d 893e 9fc7 b13e
000000e0: d948 63bd 5bb8 c43a a214 f23d 3dc0 a8be
000000f0: c133 9e3e ad9f 063e a9f3 90be a4f3 683e
00000100: 4699 f9be 316d f1bd fc5c b6be 2570 a8be
00000110: 9749 7dbd 35c5 c8bd a5a1 94bc 3e98 043e
00000120: 866b 9fbe 609e 94be c88e 693e 6361 b33d
00000130: 3008 2cbe 6c87 1ebf 67fa af3d c0e1 7d3e
00000140: 1b09 c13c c000 b7be 2967 853e 6b2a c3be
00000150: f900 7ebd 605f b1be ea30 51be 2cb2 f1be
00000160: c8a7 c9be c90c c23e b8a5 60be f4d0 e8be
00000170: 1afd 30be 25f7 7d3e af3d 563e 4ae0 f6be
00000180: edb1 ce3d 8910 613e 3e8b f1bd 1b4d 1cbe
00000190: ea6a 9c3e 941a bbbe c53a 7bbe 6965 a8bc
000001a0: 77cd a83b 94e9 0b3e 0d7f cdbe baba 9abd
000001b0: 3681 a23d ab33 aebe 9595 e23d 50a6 13bf
000001c0: e108 7c3e 6937 cb3d 93ec 04bf ebf0 f3bd
000001d0: 464d 3a3e 832d 46be 4517 d83e 8015 453b
000001e0: 3e44 a3be c4b0 b53c 4656 ec3d ffb7 20be
000001f0: 2526 4a3c 24e6 18bd 3ad9 823e ec36 633d
00000200: 12c0 c23e bbef e63e a7a0 3c3e 776e 333e
00000210: 6c6b 723e e2d7 44be a8c6 fc3d 3c24 6abe
00000220: cc19 40be eeda 1d3e 20a6 a53e db68 083f
00000230: 3a06 873e 0501 413d 836e 52be 4d81 79bb
00000240: af99 abbc 88ce 603c 8067 483d 370e dd3e
00000250: 2556 a6be d2bc 373e ecf0 ed3c 3ea8 a2be
00000260: 0ba8 233e 0668 aebe af9c 34bd 7822 47bf
00000270: 4f54 963d 2e87 b23c b923 97be 3253 20bd
00000280: dece 5e3e 34e6 a93e 7778 53bd 0904 b23e
00000290: 9827 c83e df28 d2be 5f7c 193e 2071 92be
000002a0: c902 693e 04cf dfbc fbaa 293e ce33 b63e
000002b0: 91d0 d53e fa82 a73d 9d73 8e3e a766 aa3e
000002c0: 00df e33d 4844 a03a 30dc 9d3e d0c8 6cbe
000002d0: 8a32 0ebe 7f91 19bd cc7a 8fbe ef4b 823e
000002e0: da3b 003e b5ed 603e d89a 233e e3ad d23e
000002f0: 1da0 28bf d74d 103f dfac 6fbe f828 b43c
00000300: 2bac 2ebd 2f0e 803e dd0d d03e 6cc3 193d
00000310: 312f 373e 2eb2 b7bd 3a7e 413e cc76 be3e
00000320: eeab 0dbd ee74 ca3d 3b66 89be c250 0ebe
00000330: bfe1 fb3d c2e5 63be 834a 6d3e 1e18 94be
00000340: 4be9 07be 85bb 31be 1480 58be 945e e63e
00000350: 84e0 0dbf d202 30be b62c 893e e296 9b3d
00000360: 7697 d4be c029 2bbf 279d ed3d 1d4d 863e
00000370: cd9b c93e 5b80 52be 16f4 56bd 8123 62be
00000380: 6839 30be 3e72 cc3e 6312 b63d 7944 833e
00000390: f720 f73d 102b a8be 5705 423d 118b 98be
000003a0: b054 3dbd 71e7 e03d b68e 02be 89a8 a0be
000003b0: e07b 80be 6f0e 993e a496 26be 3c89 d8bd
000003c0: 8956 bcbe 9538 be3e 4cb1 e53e 0fae e93e
000003d0: bfd7 c23d 94a3 913d 6332 54be bacc b0bd
000003e0: 03f9 d3bd f170 cf3e cde2 713e a63f c23e
000003f0: 0a3d d63e f16a c2bc e005 523d 265f ae3d

linear1.bias f4 [256]
-0.16571523 0.10259965 0.06602936 -0.13007163 -0.16030875 0.07600833 -0.066063195 0.27668744
0.16966428 0.105544634 0.023805968 -0.09204796 -0.20072904 0.07227624 -0.19621864 -0.013533149
-0.2566729 -0.19297506 -0.097315945 0.19425401 -0.14969258 0.017074862 -0.20778815 -0.15397166
-0.008534957 0.10736579 0.086719505 -0.083105944 -0.056617077 0.09082476 -0.100996494 -0.021142054
0.29255688 -0.26823142 0.17961553 -0.2566126 -0.24679615 0.079271935 -0.22036293 -0.048448622
-0.2740274 -0.1625183 -0.14264677 -0.10247418 -0.23952858 -0.22822496 0.08167578 0.11572077
-0.20158282 -0.0680673 0.07949431 0.030852366 -0.18346767 -0.2605687 -0.0068393704 -0.06918582
-0.13984028 -0.43506718 -0.1639055 -0.07679704 -0.17843132 -0.1131916 -0.09766293 -0.08074349
-0.047718145 -0.087967284 0.033825953 -0.46615398 0.026159517 -0.17235497 -0.06484431 -0.1060016
0.122404344 -0.17271288 -0.18701029 0.117878504 0.16432996 -0.06299814 0.06090518 -0.006053856
-0.2780087 0.11880728 -0.31936404 -0.22472811 0.12022982 -0.16280742 0.037810005 0.079077415
-0.18034427 -0.030360693 0.02554333 -0.1834849 -0.035480525 -0.023362333 -0.14123103 0.21543945
-0.05692059 0.09224478 -0.23510374 -0.100842334 -0.14821622 -0.3563287 -0.21489915 -0.34618044
0.21104005 -0.14863741 0.13608731 -0.3029179 0.34234846 -0.059010655 -0.18618403 0.11699453
0.23419118 -0.011901578 0.096572965 0.020406652 -0.12724358 -0.18146162 -0.1336314 -0.21369553
-0.10316541 -0.11404935 -0.25325924 -0.20432723 0.16779992 -0.16548833 -0.32915825 -0.21284354
0.077050954 -0.0821285 -0.2750183 -0.1194179 0.021602642 0.043369263 -0.23528291 -0.15982386
-0.031073626 -0.21229543 -0.14574492 0.30187392 -0.1605064 -0.2445553 0.057150435 0.06245825
-0.03865066 -0.21423548 -0.18961309 0.01546366 -0.11826882 -0.15701112 -0.12604657 -0.27835676
-0.015540858 -0.10730335 0.06655095 -0.3767291 0.09576722 -0.0098643955 0.11039098 0.062159628
-0.1013191 0.40146744 0.009428585 -0.13779457 0.16318291 -0.10454871 -0.057502285 -0.0045835753
-0.020532778 0.21214405 0.041572064 -0.22663385 0.349719 -0.16540892 0.1646919 -0.13020363
-0.19938795 0.09514401 -0.06808443 -0.24311595 -0.11563081 0.02736443 -0.13091105 -0.040049862
0.102906436 -0.043161552 -0.14372489 -0.26838905 -0.21781927 0.0020833903 -0.31722206 -0.07821152
-0.12288989 0.07140963 -0.16331415 -0.07480983 -0.10104016 -0.073920034 -0.11715175 0.06876006
-0.20529324 -0.10546495 0.06905418 0.27985787 -0.046762947 0.111983895 0.024127172 0.041850355
-0.24321102 -0.0761484 -0.26433823 0.15604593 0.059508592 0.2128944 -0.18263698 -0.19878116
-0.17137934 0.18725012 0.030660342 -0.05613989 -0.23798029 -0.13905722 -0.00927717 -0.29759476
-0.1782081 -0.2031876 -0.12946513 -0.2917204 -0.14651817 0.1206869 0.0015720436 -0.057864927
-0.061864685 -0.27501446 0.0584917 -0.0735975 0.026717693 -0.16914359 -0.2841886 -0.016568074
0.12540677 -0.22122425 -0.021689165 -0.16716182 -0.18982643 -0.0487388 -0.25239015 -0.07485406
-0.047834907 -0.23184364 0.08337595 0.16094957 -0.07471806 -0.00046026128 -0.061860915 0.30255052
00000000: 41b1 29be c41f d23d 673a 873d 7f31 05be
00000010: fa27 24be 41aa 9b3d 244c 87bd faa9 8d3e
00000020: 79bc 2d3e c927 d83d bc04 c33c a483 bcbd
00000030: ea8b 4dbe 9105 943d 8aed 48be 24ba 5dbc
00000040: a16a 83be 419b 45be 954d c7bd 86ea 463e
00000050: 0349 19be 95e0 8b3c 6bc6 54be bfaa 1dbe
00000060: 34d6 0bbc 98e2 db3d ff99 b13d 7333 aabd
00000070: 4fe7 67bd 5502 ba3d 40d7 cebd 1a32 adbc
00000080: 04ca 953e a155 89be 22ed 373e ba62 83be
00000090: 21b8 7cbe 5359 a23d d2a6 61be 1072 46bd
000000a0: 524d 8cbe 326b 26be ff11 12be fcdd d1bd
000000b0: fb46 75be ceb3 69be a245 a73d 03ff ec3d
000000c0: ba6b 4ebe de66 8bbd eacd a23d 1abe fc3c
000000d0: f3de 3bbe 4369 85be cc1c e0bb 4cb1 8dbd
000000e0: 4a32 0fbe 20c1 debe d8d6 27be c447 9dbd
000000f0: b3b6 36be ffd0 e7bd 8103 c8bd d85c a5bd
00000100: 1a74 43bd 3128 b4bd 158d 0a3d bcab eebe
00000110: 7c4c d63c d27d 30be 18cd 84bd 5e17 d9bd
00000120: 21af fa3d a5db 30be a07f 3fbe 496a f13d
00000130: 1d46 283e 2b05 81bd b677 793d 6d5f c6bb
00000140: 2857 8ebe 3b51 f33d af83 a3be 201f 66be
00000150: 0d3b f63d fdb6 26be aade 1a3d 57f3 a13d
00000160: 2bac 38be fdb6 f8bc 3f40 d13c 77e3 3bbe
00000170: 0754 11bd 5d62 bfbc de9e 10be 299c 5c3e
00000180: 9125 69bd d5ea bc3d 09bf 70be 6d86 cebd
00000190: fec5 17be b770 b6be 860e 5cbe 903e b1be
000001a0: e21a 583e 6834 18be 795a 0b3e 0e18 9bbe
000001b0: 4c48 af3e 28b5 71bd 07a7 3ebe d49a ef3d
000001c0: d0cf 6f3e d6fe 42bc 0cc8 c53d da2b a73c
000001d0: 244c 02be 13d1 39be abd6 08be 00d3 5abe
000001e0: 6348 d3bd b592 e9bd 32ab 81be 283b 51be
000001f0: bed3 2b3e c675 29be 6e87 a8be a8f3 59be
00000200: e4cc 9d3d fd32 a8bd 33cf 8cbe 5f91 f4bd
00000210: 06f8 b03c f8a3 313d 01ee 70be dea8 23be
00000220: 1e8e febc f963 59be 283e 15be 388f 9a3e
00000230: ca5b 24be b46c 7abe 9316 6a3d 39d4 7f3d
00000240: 2850 1ebd 8c60 5bbe ef29 42be 4a5b 7d3c
00000250: ec36 f2bd 86c7 20be 5a12 01be c784 8ebe
00000260: 159f 7ebc dcc1 dbbd dd4b 883d a3e2 c0be
00000270: 9b21 c43d 469e 21bc ab14 e23d 189b 7e3d
00000280: 6380 cfbd 248d cd3e 5a7a 1a3c 051a 0dbe
00000290: 6c19 273e a21d d6bd 8487 6bbd d131 96bb
000002a0: 5b34 a8bc 4a3c 593e 7847 2a3d b412 68be
000002b0: 5e0e b33e f560 29be fea4 283e 1a54 05be
000002c0: 5b2c 4cbe ddda c23d da6f 8bbd 63f3 78be
000002d0: d9cf ecbd 5e2b e03c 8c0d 06be 530b 24bd
000002e0: 9cc0 d23d 2bca 30bd 9e2c 13be 4a6a 89be
000002f0: 040c 5fbe 7d89 083b ee6a a2be 5d2d a0bd
00000300: b2ad fbbd 363f 923d d33b 27be e535 99bd
00000310: 25ee cebd 6363 97bd 42ed efbd 13d2 8c3d
00000320: 6438 52be 02fe d7bd 476c 8d3d 8849 8f3e
00000330: 818a 3fbd d057 e53d 59a6 c53c 476b 2b3d
00000340: 4f0c 79be b1f3 9bbd 5757 87be 81ca 1f3e
00000350: 48bf 733d fd00 5a3e 3005 3bbe 4a8d 4bbe
00000360: 117e 2fbe 7fbe 3f3e 662b fb3c f1f2 65bd
00000370: 1bb1 73be 0465 0ebe 45ff 17bc 575e 98be
00000380: 2f7c 36be 6910 50be 8292 04be 605c 95be
00000390: dc08 16be b22a f73d 080d ce3a c603 6dbd
000003a0: d365 7dbd b2ce 8cbe fe94 6f3d 49ba 96bd
000003b0: 10df da3c fa33 2dbe 2b81 91be c5b9 87bc
000003c0: a26a 003e 9c88 62be 7aad b1bc 782c 2bbe
000003d0: dc61 42be 56a2 47bd 4839 81be 164d 99bd
000003e0: 89ee 43bd 6b68 6dbe 03c1 aa3d f7cf 243e
000003f0: c805 99bd 394f f1b9 df61 7dbd e7e7 9a3e

linear2.weight f4 [3, 256]
-0.101522945 -0.23232299 0.07639074 -0.16937663 0.06287339 -0.06323121 -0.20435983 -0.08172597
-0.039702054 0.007580529 -0.16215226 -0.1471208 -0.030455224 -0.00030629864 -0.22180803 -0.11142694
-0.18345208 -0.21298721 0.043913625 -0.2791231 -0.047822837 0.1154292 -0.15044454 -0.0016196831
0.011660827 0.022962788 0.08036854 0.15525046 0.0927447 0.01126921 -0.16476959 -0.10079808
0.11238724 0.21673547 -0.43707663 -0.32649994 -0.16045168 0.00605559 0.08661614 -0.21734144
-0.2120775 -0.14975286 -0.03295248 0.2000875 -0.07072691 -0.16392815 -0.04496847 -0.19369729
-0.18170026 -0.012699153 -0.111475535 -0.38912147 -0.50714296 -0.1309388 -0.16167225 -0.1766702
-0.10764655 0.07339598 0.090490736 -0.115472265 -0.024244243 0.20165746 -0.22787409 0.0029545757
0.18734214 -0.068089046 -0.17373669 -0.1614831 -0.05599743 0.011377541 -0.1546204 -0.10786469
-0.092315145 0.18207765 0.058354802 0.030776484 -0.11920475 -0.33339128 0.09036757 -0.067929536
0.13258107 0.010815288 0.026401408 0.030140063 0.16052769 0.069439664 0.048351966 -0.10721024
-0.04569974 -0.04562761 -0.12330229 -0.40281978 -0.06731024 -0.018643545 -0.030155426 -0.07672774
-0.043545466 -0.5252065 -0.091781676 -0.23999104 -0.07276772 -0.14065644 -0.25835258 -0.033792436
-0.19979972 -0.19560917 -0.10396115 0.017497681 -0.116670564 -0.04009818 -0.020243354 -0.120448165
-0.054241374 -0.10427014 -0.054537907 -0.3544547 0.16468285 0.107057065 -0.17865439 -0.11994271
0.057816625 -0.25105926 0.014056112 -0.04068293 -0.10870406 -0.03984375 -0.25779837 0.042816665
-0.30726096 -0.337598 -0.040374838 -0.059701156 -0.1774131 -0.3745626 -0.065127164 -0.15703015
0.11423601 0.13864376 -0.37823138 -0.1712368 -0.19206594 0.093633495 0.013014624 -0.22483397
-0.15893553 0.14481781 0.044651747 -0.049974155 0.00580709 0.049447637 -0.0028953443 0.22932413
-0.072607964 -0.13531259 -0.19502339 0.03898442 -0.11558606 0.045618437 0.12642898 -0.13153565
0.02846843 0.029687624 -0.056748975 -0.05693486 0.11167425 -0.15161741 -0.23781748 -0.11159765
-0.20289159 -0.15726835 -0.16896948 -0.22030316 -0.2098014 -0.14159022 -0.18255799 -0.095130414
-0.06451557 -0.15061124 -0.015107177 -0.03154665 -0.091773614 -0.061982743 -0.0669242 -0.16330642
-0.3649008 -0.04868262 -0.118798025 0.0028136007 -0.02947402 -0.3904786 -0.023038581 -0.07299784
-0.08018968 -0.05350313 0.04745642 -0.04252874 0.03367014 -0.29899973 -0.102490485 -0.06470787
-0.037426263 0.0034167569 0.019522091 -0.02552803 -0.111132436 -0.012128051 -0.34798676 0.07827032
0.10147099 0.032058585 -0.16357303 -0.07412738 -0.10821336 0.008089033 0.032306965 -0.115364015
-0.2480342 -0.09821922 -0.073905274 -0.044942454 -0.2510255 -0.006432524 -0.23648879 0.047822352
-0.026346557 -0.4642431 -0.27440286 -0.0922933 -0.21116447 -0.00847105 -0.09971061 -0.22849596
-0.056019094 0.0040038195 -0.19842006 -0.06317718 -0.049543098 -0.074237265 -0.09873297 0.076415785
-0.49146432 -0.19292006 0.0030363805 -0.096687295 -0.13389996 -0.21364102 -0.17581533 -0.18788955
-0.01117396 -0.108015284 0.13853219 -0.1674849 -0.028111098 -0.022213556 0.041055717 -0.12101241
00000000: 43eb cfbd 14e6 6dbe c072 9c3d 1171 2dbe
00000010: c4c3 803d 5d7f 81bd b443 51be f25f a7bd
00000020: 9f9e 22bd 1666 f83b 3e0b 26be d6a6 16be
00000030: 3c7d f9bc b596 a0b9 a521 63be cf33 e4bd
00000040: ddda 3bbe 5219 5abe c6de 333d 39e9 8ebe
00000050: e1e1 43bd 2566 ec3d 220e 1abe 8c4b d4ba
00000060: 0e0d 3f3c 751c bc3c 4398 a43d faf9 1e3e
00000070: eff0 bd3d 7ea2 383c 5cb9 28be 396f cebd
00000080: 482b e63d e7ef 5d3e 82c8 dfbe 002b a7be
00000090: 724d 24be f96d c63b ce63 b13d c18e 5ebe
000000a0: d82a 59be d058 19be 2ef9 06bd bde3 4c3e
000000b0: 45d9 90bd c8dc 27be dc30 38bd 9558 46be
000000c0: a20f 3abe 1c10 50bc 494d e4bd ee3a c7be
000000d0: 1fd4 01bf d214 06be 698d 25be 08e9 34be
000000e0: cb75 dcbd a250 963d 3553 b93d b97c ecbd
000000f0: dd9b c6bc 4b7f 4e3e d357 69be 8ea1 413b
00000100: 9ed6 3f3e 4572 8bbd 08e8 31be d35b 25be
00000110: 905d 65bd de68 3a3c cf54 1ebe 2ae8 dcbd
00000120: b90f bdbd 9072 3a3e 7205 6f3d f71e fc3c
00000130: 9f21 f4bd 43b2 aabe a212 b93d a41e 8bbd
00000140: 55c3 073e 9b32 313c c447 d83c 4be8 f63c
00000150: 5f61 243e 6236 8e3d b60c 463d 0b91 dbbd
00000160: a72f 3bbd 04e4 3abd e985 fcbd 653e cebe
00000170: f3d9 89bd 59ba 98bc 8308 f7bc 6f23 9dbd
00000180: bb5c 32bd ef73 06bf 08f8 bbbd 36c0 75be
00000190: 3e07 95bd 3e08 10be ca46 84be f069 0abd
000001a0: 4c98 4cbe c54d 48be 95e9 d4bd 4c57 8f3c
000001b0: faf0 eebd fd3d 24bd 64d5 a5bc 87ad f6bd
000001c0: 342c 5ebd 958b d5bd 2463 5fbd 167b b5be
000001d0: 9fa2 283e bc40 db3d 2df1 36be 86a4 f5bd
000001e0: 20d1 6c3d d78a 80be 9b4b 663c 25a3 26bd
000001f0: 3ca0 debd 3333 23bd 26fe 83be 8760 2f3d
00000200: 4f51 9dbe a5d9 acbe 1660 25bd 3389 74bd
00000210: c8ab 35be abc6 bfbe 6461 85bd 83cc 20be
00000220: 92f4 e93d a1f8 0d3e 8ba7 c1be b358 2fbe
00000230: efac 44be ebc2 bf3d 4a3b 553c e03a 66be
00000240: ffbf 22be 1f4b 143e c0e4 363d b3b1 4cbd
00000250: 6749 be3b 9b89 4a3d d1bf 3dbb f2d3 6a3e
00000260: 7cb3 94bd 628f 0abe 36b4 47be 21ae 1f3d
00000270: 62b8 ecbd 66da 3a3d 9976 013e 48b1 06be
00000280: a036 e93c 7633 f33c 9d71 68bd 8734 69bd
00000290: 78b5 e43d 9841 1bbe 6d86 73be 4f8d e4bd
000002a0: d0c2 4fbe f40a 21be 5606 2dbe 2797 61be
000002b0: 2ed6 56be 07fd 10be 7bf0 3abe bcd3 c2bd
000002c0: bd20 84bd d539 1abe 1884 77bc 0f37 01bd
000002d0: cef3 bbbd 9ee1 7dbd 8e0f 89bd cc39 27be
000002e0: 47d4 babe 6d67 47bd 614c f3bd 6364 383b
000002f0: 8073 f1bc d0ec c7be 68bb bcbc e47f 95bd
00000300: 7d3a a4bd 1926 5bbd aa61 423d 9e32 2ebd
00000310: b3e9 093d 7e16 99be 88e6 d1bd 8f85 84bd
00000320: 484c 19bd abeb 5f3b cbec 9f3c 2920 d1bc
00000330: 6799 e3bd bcb4 46bc 522b b2be 314c a03d
00000340: 06d0 cf3d dd4f 033d b07f 27be 19d0 97bd
00000350: f79e ddbd dd87 043c 4f54 043d f843 ecbd
00000360: adfc 7dbe 2927 c9bd a65b 97bd 9415 38bd
00000370: 6a86 80be ecc7 d2bb 1e2a 72be 5fe1 433d
00000380: bcd4 d7bc 46b1 edbe 887e 8cbe 4504 bdbd
00000390: 803b 58be 29ca 0abc 1435 ccbd d8fa 69be
000003a0: 4774 65bd 7932 833b a12e 4bbe 0a63 81bd
000003b0: b4ed 4abd b509 98bd 8334 cabd e17f 9c3d
000003c0: 36a1 fbbe d68c 45be 03fe 463b fd03 c6bd
000003d0: 121d 09be b6c4 5abe ef08 34be 1e66 40be
000003e0: fc12 37bc 1e37 ddbd 62db 0d3e 2981 2bbe
000003f0: 3f49 e6bc 34f9 b5bc 0a2a 283d 5bd5 f7bd

linear2.bias f4 [3]
-0.1973395 0.025409918 -0.19804744
00000000: 5e13 4abe 7628 d03c f3cc 4abe
