src/model/snake_medium.pth (torch, 17464 bytes, 4 tensors)

linear1.weight f4 [256, 11]
00000000: 36c6 5f3b 0be3 1bbd 31f4 19bb 1933 0dbe
00000010: d577 663d 3aa2 9bbe 2768 fd3d 48f3 b33e
00000020: 0623 f03e b9e4 fb3e b708 2d3d c39d 043e
00000030: e215 d33d 2e99 793e 2e28 a7be 9f17 3dbd
00000040: e07f 9ebc 6142 f0be 902e 01be a687 c9be
00000050: cbf7 d2be facf 3d3e 03ad 63be 2b38 34be
00000060: a7ef a3be dd37 8bbe e568 3d3e b8e2 f9be
00000070: 56d2 b33d 64a6 113c 78f2 dbbe a93e 9a3e
00000080: c8c3 a4be b061 2abe ae57 9c3d 4a15 a93e
00000090: 6774 563d 58f9 9f3e f000 46bc 4e30 ae3b
000000a0: 5d60 073e c477 503e 126f 22be 7884 7a3e
000000b0: ff9c da3e 2c58 5fbe 4239 433d 3805 8e3e
000000c0: a3ae a23e 9310 c33c 2b05 76be 2cd1 13be
000000d0: 2887 51be 9b9a c93d c183 a63e 83d4 ab3e
000000e0: 29d1 e5bc ba7e 9ebb 25e8 4a3e 2450 bbbe
000000f0: e144 8b3e 69ea 473d 3513 b4be 8c75 703e
00000100: f435 c8be 7ff8 13be 724f b7be 4a77 5ebe
00000110: 368d dbbc cb2e 03bd f976 c8bd 3200 383e
00000120: 71dd 98be 609e 94be fdfc 843e 1f70 c93d
00000130: af9f edba 4657 1dbf e82a 0d3e e79b 9e3e
00000140: 5a6b 843d fb3a bebe 54b0 8b3e 575f d8be
00000150: 31ab 01bd 0e94 cabe be8c 31be 5868 efbe
00000160: de2e a2be 253a c53e bb07 26be a538 cbbe
00000170: 8f86 17be b4ac 8c3e 0197 6f3e 5735 f9be
00000180: 759c 193e 17ae 613e 3cf5 a7bd f1bd 2dbe
00000190: edf3 ce3e 0ce4 aabe b9d2 59be de2a 613d
000001a0: b786 423c 58d6 693e e53a d0be fcfb 9dbc
000001b0: e932 d73d a9ff 7bbe 27b6 e13d 4091 10bf
000001c0: 6af2 833e d616 ac3d b073 ffbe 6e31 00be
000001d0: 60a6 543e aeb4 1bbe 7299 e13e 2636 4a3d
000001e0: 180e 8dbe 9a40 353c 3312 993d 3e45 2dbe
000001f0: f383 f4bc 9370 0dbd a6f7 683e 8c4b 2cbb
00000200: ac64 b23e 8446 e13e 8f17 523e 834f 4a3e
00000210: def7 7d3e 916b 30bd 22bd 0a3e 21f7 99be
00000220: 2ad8 1ebe 6a3d d23d 70c8 ba3e 26be ef3e
00000230: 9f02 ab3e 3fbd 6e3d e936 54be 80df b93c
00000240: 9338 ccbc daf6 503d 038e fdbc 0736 bb3e
00000250: 23dd 8fbe 2ba5 7a3e 69af 8cbc 72ac babe
00000260: 6e37 3a3e 3c81 c3be bf6d 95bc 5a70 26bf
00000270: 9f25 cc3d 3e98 03bb e86e 36be 1dcd cebd
00000280: 9020 6e3e 16f8 9b3e 8dc6 42bc 5b5c c43e
00000290: e4d3 d13e 0869 d7be 130c f43d 809a 87be
000002a0: b66a 3c3e 42a9 89bc b91b 093e e958 a23e
000002b0: 1aa6 ca3e e432 ad3d 3539 963e a31d b93e
000002c0: 80ed d03d e709 5a3d 09f9 8c3e 2b3d 1abe
000002d0: 97b3 bfbd 0e73 aabc fc12 65be 746c 8c3e
000002e0: 39d7 8c3e 949e 803e 46e6 903e 6b94 df3e
000002f0: 4383 15bf cbce fe3e 927c 90be 97fa 363d
00000300: 7fe6 1ebe 35a8 8e3e facd bd3e bd74 993c
00000310: e18b 4d3e 2409 8ebd a648 373e 808e cd3e
00000320: 6d29 403d 9fec e23d edb3 84be 376f 00be
00000330: 8867 2d3e a8b2 3bbe 6af7 903e 4bba 58be
00000340: f684 20be 1236 07be d286 f8bd 3657 bd3e
00000350: 9b06 11bf a1c7 1dbe a77f 8a3e b36a 803d
00000360: af61 e9be 4f9d 11bf 1bbd c43d a201 983e
00000370: 1f1b e53e 184e 09be b59b 953b 16af 6dbe
00000380: 52db cfbd 50b3 cb3e 486f a63d eca6 8b3e
00000390: 4477 0f3e 6435 89be a421 d63c d7d8 98be
000003a0: 2e19 20bd f9d2 bdbb a538 57be ae48 a0be
000003b0: 0614 97be 3da7 933e edef 71be b5ce 4cbd
000003c0: ccd8 a4be e647 9f3e ddb2 d63e 06fa d13e
000003d0: a916 f13d 030c 533d 1748 4fbe c256 c2bd
000003e0: 44a8 1ebe beaa d03e 2d8d 883e 4c1d cd3e
000003f0: 6ed9 c93e 59ac d0bc e701 d93c e676 703d
0.0034145243 -0.038058322 -0.0023491497 -0.13789023 0.056266624 -0.30397207 0.12373381 0.35146546
0.4690172 0.4919794 0.04224464 0.12950806 0.10306908 0.2437484 -0.32647842 -0.046165105
-0.019348085 -0.46925643 -0.12615418 -0.39361304 -0.41204676 0.18536368 -0.22233967 -0.17599551
-0.32018778 -0.27191058 0.18497045 -0.48805785 0.08780353 0.008889768 -0.42958426 0.3012593
-0.3218062 -0.16638827 0.07633911 0.33024055 0.052357104 0.31244922 -0.012085184 0.005315817
0.13220353 0.20358187 -0.15862682 0.24464595 0.42697904 -0.21810979 0.047662027 0.27738357
0.31773862 0.023811614 -0.24025409 -0.14435261 -0.20461714 0.09843942 0.32522395 0.3356057
-0.028053837 -0.0048368843 0.19815119 -0.3658458 0.27200988 0.048807535 -0.35170904 0.2348234
-0.39103663 -0.14450262 -0.358028 -0.21725193 -0.026800733 -0.032027047 -0.09788317 0.17968825
-0.29856446 -0.2902708 0.25974265 0.098358385 -0.0018129254 -0.61461294 0.13785899 0.3097832
0.06465788 -0.37154374 0.27282965 -0.4226024 -0.0316574 -0.39566082 -0.17338845 -0.46759295
-0.31676382 0.38520923 -0.16213886 -0.39691654 -0.14797424 0.27475512 0.23397447 -0.48673508
0.1500109 0.22039066 -0.082010716 -0.16966988 0.40420476 -0.3337711 -0.2127179 0.054972522
0.011872939 0.22835672 -0.40669933 -0.019285195 0.10507757 -0.24609245 0.11021071 -0.56471634
0.25770885 0.08402793 -0.4989295 -0.12518856 0.20766592 -0.15205643 0.44062382 0.049368046
-0.27549815 0.0110627655 0.07474174 -0.16920945 -0.029848075 -0.034531187 0.2275072 -0.0026290147
0.34842432 0.43999112 0.205168 0.19756894 0.24801585 -0.043071333 0.13548711 -0.30071357
-0.15512148 0.1026562 0.36481047 0.4682476 0.33400437 0.058285948 -0.20724072 0.02268958
-0.02492932 0.051016666 -0.030951506 0.36564657 -0.280984 0.24477069 -0.017173486 -0.3645969
0.18185207 -0.38184536 -0.018240808 -0.65015185 0.09968113 -0.0020079757 -0.17815745 -0.10097716
0.23254609 0.30462712 -0.0118881585 0.38351712 0.40981972 -0.4207232 0.119163655 -0.26485062
0.18400082 -0.016804341 0.13389482 0.31708458 0.3957985 0.08456972 0.2934052 0.36155424
0.102015495 0.0532321 0.2753375 -0.15062396 -0.09360426 -0.020806815 -0.22370523 0.27426493
0.27507952 0.25120986 0.28300685 0.4366792 -0.58403414 0.49767146 -0.2822004 0.044672575
-0.15517615 0.27862707 0.3707121 0.018732423 0.20072891 -0.06935337 0.17898807 0.4014778
0.046914507 0.11080288 -0.25918522 -0.12542425 0.16934025 -0.1832987 0.28313762 -0.21164815
-0.1567572 -0.1320422 -0.1213509 0.369806 -0.56650704 -0.15408184 0.27050516 0.06270351
-0.4558234 -0.5688066 0.096063815 0.29688746 0.44747254 -0.13408697 0.004565681 -0.23211321
-0.10149254 0.39785242 0.08126694 0.2727579 0.1401034 -0.26798546 0.026139088 -0.29852936
-0.039086513 -0.005792972 -0.21017702 -0.3130545 -0.29507464 0.2883853 -0.2362668 -0.05000182
-0.32196653 0.31109542 0.41933337 0.41011065 0.117719 0.051525127 -0.20242344 -0.09489204
-0.15493876 0.40755266 0.2667021 0.40061414 0.39423698 -0.025472807 0.026490165 0.05870714

linear1.bias f4 [256]
00000000: 288a 61be e6ff 153e 827c f43d c4dd f1bd
00000010: 4132 0abe b345 9c3d 8e49 7ebc 5096 983e
00000020: 3ea2 423e 16f8 3a3e 3e5c 303d eab7 35be
00000030: a643 36be a706 98b9 cf49 5fbe c8b0 79bd
00000040: 136b 12be c2c6 65be a138 66bd 98ad 413e
00000050: 96fa 10be c22a 1dbd f51b 81be f871 1dbe
00000060: a55c c03c afe2 5f3e 1558 b83d d3cf 9dbd
00000070: 388e 803d cf9b 023e 3c93 47be eba1 85bd
00000080: 992d 6e3e f7d1 69be 5951 c83c 48af 92be
00000090: 7be6 2fbe 0740 033e 3ebb 4abe e6b8 babd
000000a0: 602b 65be 8a6b 11be ff11 12be 8dfe f7bc
000000b0: fb46 75be 01aa 59be 7057 e63d 7175 b13c
000000c0: 952f 61be 556e 6bbd 98b1 c13b 13f1 f0bc
000000d0: 72c0 49be 19fb 8cbe 74e7 f2bd f9eb bebd
000000e0: 1c0b 7fbd 20c1 debe 940b 16be 2531 34bc
000000f0: b6e8 4abe 6e83 adbd b1c4 94bd 1410 c0bd
00000100: 7349 6abd 6ac2 9cbb d3ad 88bd ed7c cabe
00000110: a76c 39bb d228 29be 4827 3bbd 22e1 53be
00000120: ba93 ea3d 636f 3ebe a07f 3fbe 807a 153e
00000130: a4f7 103e 0e3c bfbd 9a12 ec3d 794c 81bc
00000140: 06d6 63be 93fa 1e3e af83 a3be 8126 82be
00000150: 5462 133e 8f23 ebbd bd58 283e b03f ed3b
00000160: ffb2 52be 5fa6 bb3c ffc6 da3c 0d9a 14be
00000170: e597 f9bb 3f49 3bbc 942f c4bd ca09 2f3e
00000180: 544b a5bd 0c04 ec3d 177a 6abe a941 c0bc
00000190: a598 47be 016b 9bbe 7d0f 70be 927b 6abe
000001a0: 41fd 9c3d e514 11be 0534 ce3d 0e18 9bbe
000001b0: 74de 933e 51ee d4bc 07a7 3ebe 17e3 3b3d
000001c0: 17c6 853e fbb0 31bd 4c36 553d dc56 da3c
000001d0: f920 b4bd ab84 1fbe f476 2abe 1beb 92be
000001e0: bb2a 88bd 27c1 61bd 2509 7fbe 429b d4bd
000001f0: 2b18 213e c653 8bbd ac49 62be dc06 41be
00000200: 7f80 903d 0973 f1bc a47e 78be b4b3 efbd
00000210: 417c c83d 4657 373d 0e1b 9ebe 83bb 0fbe
00000220: f76b 99bc 4b51 21be b6af 4dbe b54c 643e
00000230: d8e0 28be 32df 16be 9726 ca3d 3d9e 103d
00000240: 4b89 bfbd 6732 32be cd58 3abe 2d0c b83d
00000250: ec36 f2bd fe02 35be ef6a 21bd ec0d 84be
00000260: c862 8bbd 2718 74bd 5e87 99bc e8f7 99be
00000270: abab 753d fae4 08bc c7da ef3d 75d4 a33d
00000280: c584 febd 6f88 e63e a6cc 653d c514 f3bd
00000290: d242 bf3d 7440 2cbe fc0a 1ebe a03a efbd
000002a0: 1e96 2abd 9317 1f3e b73d 17bd c937 5bbe
000002b0: 1253 7d3e ca6d 0ebe 900a a83d 9179 3dbe
000002c0: 5211 47be 4cce 923d d451 c7bd 18bf 5dbe
000002d0: cc32 d9bd 77e5 97bd 8155 92bd 032d ed3b
000002e0: f93e 8d3d b206 13bd d490 dfbd 7957 49be
000002f0: 7e8f 5abe 0ed4 f93c 5930 86be a7b2 b4bd
00000300: 4509 09be ec43 473d 435c dfbd 7b9a 6cbd
00000310: 5868 8abd 5539 bebd 77d1 07be f7dc cf3d
00000320: 4593 1abe e8a5 49bd 2d76 0b3e 3375 933e
00000330: 0a0e 5abc 649a ee3d bec9 bbbd 92ea 0f3e
00000340: 764e 6fbe 7041 57bd cddc a0be 0ac0 6b3d
00000350: 030c 21bd a317 8e3e 2f9c fcbd 756c 8cbe
00000360: 0764 8dbe 079b 233e f64c 933b 592a dabd
00000370: 2f55 a0be 1207 08be 3154 b73c 5d35 8dbe
00000380: fd64 15be 2bff 3bbe fdb4 04be 543b a2be
00000390: 1e52 0abe fe05 fb3d 88be 82bd 1bc6 87bd
000003a0: 6ca4 6dbd e6e8 90be eb2f 6f3d 8aad 9abd
000003b0: 901e 94bd 7e87 51be 3cb4 5dbe 4217 d7ba
000003c0: 442d f63d bbeb 1fbe f4e7 ab3c 8d5d 50be
000003d0: b9e8 55be 588f 49bd 513a b1be 2529 6cbe
000003e0: 49d2 893b 65ff 62be 0dad b73d 5750 5c3e
000003f0: 2e07 9cbc c3a5 4f3d d914 1abc b6ef b13e
-0.22025359 0.14648399 0.119378105 -0.118098766 -0.13495733 0.076304816 -0.0155204665 0.2980218
0.19007203 0.182587 0.04305672 -0.17745939 -0.17799243 -0.00028996656 -0.218055 -0.060959607
-0.14298658 -0.22439101 -0.05620635 0.18913877 -0.14158091 -0.038370855 -0.25216642 -0.15375507
0.023481676 0.21863817 0.09001175 -0.07705655 0.06277126 0.12754749 -0.19489759 -0.06525024
0.23259582 -0.22834001 0.024452852 -0.28649354 -0.17177765 0.12817393 -0.1979799 -0.09117298
-0.22379827 -0.14201179 -0.14264677 -0.030272746 -0.23952858 -0.21256258 0.11247146 0.021662446
-0.21990807 -0.057478268 0.0059110634 -0.029411828 -0.19702318 -0.27535322 -0.118605524 -0.09322352
-0.062266454 -0.43506718 -0.14652854 -0.010998045 -0.19815335 -0.08472334 -0.072640784 -0.09378067
-0.057198953 -0.004783918 -0.06673779 -0.39548436 -0.0028293522 -0.16519478 -0.04569176 -0.2069135
0.11453958 -0.18597178 -0.18701029 0.14597511 0.14156967 -0.093376264 0.115269855 -0.015783535
-0.22249612 0.15525274 -0.31936404 -0.2542 0.14392978 -0.11481392 0.16440101 0.007240258
-0.20576094 0.02290648 0.026706217 -0.1451189 -0.007616984 -0.011431037 -0.09579387 0.17093578
-0.08071008 0.115242094 -0.22898136 -0.02346881 -0.19491823 -0.30355075 -0.23443408 -0.22898701
0.07665492 -0.14168127 0.10068516 -0.3029179 0.28880656 -0.025992544 -0.18618403 0.045870867
0.26127693 -0.043381672 0.052053735 0.026652746 -0.087953515 -0.15577953 -0.1664694 -0.28694996
-0.06648775 -0.055115845 -0.24905832 -0.103811756 0.15731876 -0.06803088 -0.22098416 -0.18850273
0.07055759 -0.029473798 -0.2426706 -0.117041975 0.097893246 0.044760965 -0.30880016 -0.14036374
-0.01872824 -0.15753667 -0.2008656 0.22294886 -0.16492021 -0.1473358 0.09870642 0.035307158
-0.093523584 -0.1740204 -0.18197937 0.08986697 -0.11826882 -0.17676923 -0.03940862 -0.25791872
-0.068059504 -0.059593346 -0.018741306 -0.3007195 0.05997817 -0.0083553735 0.1171165 0.07999507
-0.124276675 0.45025966 0.05610337 -0.11869196 0.09338917 -0.16821462 -0.15433878 -0.11681104
-0.04164707 0.15536337 -0.03692409 -0.21407999 0.2473872 -0.13909069 0.0820514 -0.18503405
-0.19440201 0.07168254 -0.09732404 -0.21654928 -0.10605392 -0.07416814 -0.07145215 0.007238032
0.06896777 -0.035895057 -0.10916296 -0.19662274 -0.213438 0.030496623 -0.2620876 -0.08823138
-0.13382442 0.04864876 -0.109062694 -0.05776451 -0.06758183 -0.09288279 -0.13263498 0.101495676
-0.15095241 -0.049230486 0.13619299 0.28800353 -0.013309011 0.116505414 -0.09169339 0.14054325
-0.23369774 -0.05255264 -0.31418458 0.05755619 -0.039318096 0.27752408 -0.12334477 -0.27426496
-0.27615377 0.15977107 0.0044952584 -0.106526084 -0.3131499 -0.13283947 0.022379013 -0.27579775
-0.14589305 -0.18359058 -0.12959667 -0.3168589 -0.13507888 0.12257002 -0.06383997 -0.066295825
-0.058018133 -0.28302687 0.058395308 -0.07552631 -0.07232392 -0.20461842 -0.21650785 -0.001641013
0.120203525 -0.15617268 0.020984627 -0.20348187 -0.20889558 -0.04920897 -0.34614804 -0.2306257
0.004205976 -0.22167738 0.08968554 0.21515022 -0.019046392 0.050695192 -0.0094043845 0.34753197

linear2.weight f4 [3, 256]
00000000: 9ccc 06be c18e 84be 9867 663d 605d 4bbe
00000010: 7d89 d03d f396 80bd 36a6 73be cd3f 273b
00000020: 89c9 fcbc 9d3d a63d ff77 0fbe d748 1cbe
00000030: 6b6e 983c af9c 0c3d 0ff6 85be 5916 ecbd
00000040: 9dfa 70be 05cd 87be c0b2 8d3d b3a1 69be
00000050: 8866 ecbc 1b23 103e adc7 31be 736e efbc
00000060: 599b 7f3d b4e5 273d d0d7 0c3d 3242 283e
00000070: 5bff 343e 58b2 753d 60b2 28be 01f3 4fbd
00000080: 0a49 9b3d 9f81 a83d 1997 94be d810 66be
00000090: 2e1d 51be ed5e 673d d26c 203d 53a5 5ebe
000000a0: c964 3fbe 7656 3ebe 2ef9 06bd 83f9 893e
000000b0: 45d9 90bd 2ee4 40be 526f e83c fb2f 47be
000000c0: 8791 3dbe 1de5 283b 72b8 edbd e844 ddbe
000000d0: e6cb c4be 6099 f1bd fc74 2cbe e318 38be
000000e0: e07b fdbd a250 963d aa9c 8b3d 126a febd
000000f0: 291a 13bc 6e09 8c3e b951 b2be 81ca 443d
00000100: df74 3b3e 2838 c8bd f4f9 36be 4294 4abe
00000110: 7a50 16bd 3f17 563b 4080 42be bdba e4bd
00000120: dd9d dcbd 3794 09bc 7205 6f3d a612 383d
00000130: 6d15 e1bd 740d bbbe 55e5 983d 7eb7 7dbd
00000140: 653c 093e c3e1 8d3d c447 d83c 46d3 493d
00000150: 11c1 283e c9c8 f63d 43be ee3d 3b66 eebd
00000160: 8945 6fbd 1829 16bd 43e8 f1bd 28c5 f4be
00000170: 0df7 1dbd 9ccf eb3c fcb3 c13b 81b1 96bd
00000180: 7e30 82bd 7e9d 05bf bffe d6bd 09f6 74be
00000190: 2bfb de3b d834 26be 606e 8cbe 0489 d0bd
000001a0: 932b 47be 5ddb a6bd 1101 c0bd 4c57 8f3c
000001b0: adb2 afbd 5d1e af3c 64d5 a5bc 953c 06be
000001c0: d391 24bd e946 e8bd 2be5 8fbd 70de d6be
000001d0: d1f2 5d3e 6288 e13d 5523 59be 13d5 10be
000001e0: fe04 bc3d 1a74 6cbe 29c8 333c adde 09bd
000001f0: 102a babc 66e9 2dbe 8ff3 a1be 9ebf 823d
00000200: 4923 8fbe ef7b d0be 611b a6bc ef26 7bbd
00000210: fc21 89be 0fe5 edbe 44b7 7abd 616a 8ebd
00000220: 9684 183e 7346 113e ffd4 d8be 5f56 1dbe
00000230: c680 5bbe e11f 043e 1b11 e5bc ceb1 31be
00000240: a84e ebbd 1dbf 263e 4bbb 8f3d 1f67 7abd
00000250: 6749 be3b fd24 663d fa65 dabc e02a a23e
00000260: df0a 8bbd ed74 38be e9c0 59be ea9a af3d
00000270: 32a9 15be c322 943d a774 363e 7c99 03be
00000280: 5f51 5cbc c1bb d03d f298 d7bd f705 aabd
00000290: 2af0 073e 9dd2 19be 3583 8cbe 3806 b0bd
000002a0: 65dd 5abe 89e1 17be 0d84 34be 20e5 63be
000002b0: 5585 49be 4512 f6bd c341 31be c748 f9bd
000002c0: 2782 cebd 2e87 0cbe 8d3d 853c 9866 4bbc
000002d0: d36a 81bd 5957 93bd 66f2 c3bd 7b5f c2bd
000002e0: 06b3 c6be 2d13 e7bc f461 40be 6c9b a03c
000002f0: e373 3bbd 4e2f e0be 2f35 32bc 49cb f0bc
00000300: 6a04 e8bd e2cd 1a3d 4c40 ef3d 97a5 c9bc
00000310: af9d 153d fa11 a3be 09db c1bd b04f aabc
00000320: c7cb 383d b327 0bbd b0b9 393d 6f3d 113d
00000330: 1cfa 11be 492c dcbb 96ec c0be c042 c23d
00000340: 2c88 1f3e d7a4 573d 0f41 18be 2482 53bd
00000350: 3b5b b4bd 7152 7d3d 3fc3 8a3d 509d 07be
00000360: 0749 7bbe 4371 c7bd ade6 81bd c511 eabc
00000370: 1171 8bbe 0a2e a73c 0007 55be 7dd7 e83d
00000380: 2953 acbc a9c1 03bf 6c5c 7cbe 9e05 1fbe
00000390: 9785 36be 89f7 c6bc f30c c9bd 4dd3 4bbe
000003a0: ef00 71bd d6b3 3f3b 22e1 46be ca84 adbd
000003b0: 3fff e6bb 2299 b4bd 577d 00be 89bc 0c3e
000003c0: 20bf e2be 08a8 64be 990c de3c 503d 8abd
000003d0: 5140 2dbe 9518 49be ec6f 4bbe e3c0 4dbe
000003e0: d83d 5e3d 9846 03be 7db5 4a3e 1473 07be
000003f0: 442e aabd 297c 14bc c8d4 ae3c 7627 c4bd
-0.1316399 -0.25890163 0.05625114 -0.19859838 0.10182474 -0.06278791 -0.23793873 0.0025520206
-0.030857818 0.081172206 -0.14010619 -0.15262161 0.018607339 0.034329113 -0.2616429 -0.115277
-0.23533101 -0.26523605 0.069188595 -0.2281559 -0.028857484 0.14075892 -0.17361327 -0.029227471
0.06240401 0.040990546 0.034385502 0.16431502 0.17675535 0.059984535 -0.16474295 -0.050768856
0.075822905 0.08227848 -0.29021528 -0.22467363 -0.20421287 0.056487013 0.03916628 -0.21742754
-0.1869079 -0.1858767 -0.03295248 0.26948175 -0.07072691 -0.18837044 0.028373394 -0.19451897
-0.18512546 0.0025771328 -0.11607446 -0.43216634 -0.38436812 -0.11796832 -0.16841501 -0.17978244
-0.12377143 0.07339598 0.06816991 -0.12422575 -0.008978405 0.27350944 -0.34827974 0.048044685
0.18306302 -0.09776336 -0.17868787 -0.19783118 -0.036697842 0.0032667664 -0.18994236 -0.1116843
-0.107722975 -0.008397154 0.058354802 0.04493966 -0.10990415 -0.365337 0.074656166 -0.06194257
0.13401945 0.06927826 0.026401408 0.04927375 0.16479899 0.120500155 0.11657383 -0.11640593
-0.058415923 -0.036660284 -0.118118785 -0.47806668 -0.038565684 0.02878552 0.0059113484 -0.07358075
-0.063569054 -0.5219344 -0.10497808 -0.2392198 0.006804844 -0.16231096 -0.2742796 -0.10182384
-0.19450216 -0.08147309 -0.093752034 0.017497681 -0.085790016 0.021376783 -0.020243354 -0.13109048
-0.04017813 -0.1134165 -0.07026132 -0.4196658 0.21674658 0.11012341 -0.21204884 -0.14143781
0.0918064 -0.23091164 0.010973015 -0.033659626 -0.022725135 -0.16983566 -0.31631133 0.06384204
-0.27956608 -0.40719554 -0.020276727 -0.061316427 -0.2678374 -0.4646382 -0.061209932 -0.06953884
0.14894328 0.1418703 -0.42350003 -0.15364979 -0.21435842 0.12902786 -0.027962258 -0.17352983
-0.11489612 0.16283841 0.07018145 -0.0611335 0.00580709 0.05618762 -0.026659954 0.31673336
-0.06789183 -0.18013354 -0.21264996 0.085744694 -0.14615324 0.07233193 0.17817937 -0.12851518
-0.013447135 0.10192061 -0.10527219 -0.08301919 0.13275209 -0.15021749 -0.27443853 -0.08594936
-0.21373518 -0.14832129 -0.17628498 -0.22255373 -0.19679768 -0.120152034 -0.17310242 -0.12172084
-0.10083418 -0.13723442 0.016264701 -0.012414597 -0.06319203 -0.071943946 -0.09567718 -0.09490868
-0.3880846 -0.028207386 -0.18787366 0.01960536 -0.045764815 -0.4378609 -0.010876938 -0.029393809
-0.11328967 0.037794 0.116821855 -0.024615092 0.036527332 -0.31849653 -0.09465606 -0.020789951
0.045116212 -0.033973407 0.0453431 0.03545898 -0.14255565 -0.0067191464 -0.376805 0.09485388
0.15579289 0.052647438 -0.14868568 -0.051637784 -0.08806463 0.0618462 0.067755215 -0.13243604
-0.24539576 -0.097384 -0.06342826 -0.028572926 -0.272347 0.020407695 -0.20803452 0.11369226
-0.021035748 -0.51467377 -0.24644631 -0.15529487 -0.17824398 -0.024287956 -0.09816923 -0.19904824
-0.05883878 0.0029251478 -0.19421819 -0.08472593 -0.0070494707 -0.0881827 -0.12547813 0.13743795
-0.44286442 -0.22329724 0.027105616 -0.06749976 -0.16919066 -0.19638284 -0.19866914 -0.20093112
0.054258198 -0.12819898 0.19795795 -0.13227493 -0.08309606 -0.009062805 0.021341696 -0.09577839

linear2.bias f4 [3]
00000000: 31f4 0fbe c611 193d 805d 16be
-0.14057995 0.037370466 -0.14684105
