src/model/snakes_base.pth (torch, 17216 bytes, 4 tensors)

linear1.weight f4 [256, 11]
0.024109928 -0.03273893 -0.007871822 -0.119281724 0.058108643 -0.23494197 0.11390692 0.29720116
0.44433814 0.42129892 0.0373222 0.12075248 -0.04799351 0.2711482 -0.2017591 0.025853548
-0.13969372 -0.46812826 -0.050628897 -0.31552455 -0.26567453 0.19152379 -0.25591952 -0.16792312
-0.32863855 -0.21303914 0.20775817 -0.46520692 -0.04853856 0.038963076 -0.3856197 0.30605417
-0.19836725 -0.15042916 0.13745862 0.40974897 0.11919294 0.3164712 -0.0065049436 0.051119298
0.07936863 0.19912735 -0.12626196 0.2516359 0.40018752 -0.30152088 -0.024562567 0.22455922
0.32073668 0.01791375 -0.1664873 -0.10407264 -0.19933634 0.094639264 0.28291354 0.2827125
0.0030546042 -0.0109963585 0.15809299 -0.35533848 0.24414276 0.11334133 -0.29444265 0.20927155
-0.38094422 -0.16606736 -0.33753002 -0.15072995 0.016310869 -0.14025201 -0.088797286 0.17157613
-0.20906128 -0.20809545 0.24944022 0.11736158 -0.0038901942 -0.48330325 0.12824816 0.40238082
0.05141988 -0.25477666 0.26228997 -0.34662488 -0.024775762 -0.37677506 -0.20023581 -0.30870754
-0.24064715 0.33198902 -0.15952946 -0.382199 -0.12584335 0.2973097 0.22780159 -0.4243628
0.1692231 0.20802216 -0.086130075 -0.12497515 0.3971483 -0.34286344 -0.12715006 0.057058785
0.0049858755 0.21739992 -0.30723682 -0.07197378 0.07537928 -0.24193199 0.071690366 -0.35462072
0.32424065 0.044009306 -0.4846933 -0.06873609 0.20702195 -0.14168973 0.37564448 0.0006268755
-0.21319821 0.03800032 0.10822751 -0.11681002 0.006576541 -0.017989716 0.25399154 0.04535472
0.3138452 0.439377 0.15624821 0.19584966 0.21643694 -0.041520502 0.112087876 -0.27850708
-0.1831736 0.10669265 0.3671851 0.41086748 0.32494548 0.039977048 -0.15364724 0.008400357
-0.003406583 -0.05904284 -0.0026693693 0.32629314 -0.187864 0.1588408 -0.036753453 -0.34330893
0.16055247 -0.3528694 0.010745519 -0.50938636 0.13651718 0.11681152 -0.17232607 -0.15386428
0.26786372 0.2869358 -0.07951294 0.32703197 0.44356903 -0.3697085 0.09388542 -0.24325311
0.2533697 0.009399495 0.14507365 0.35127634 0.40210575 0.08396116 0.25601545 0.36407852
0.12568723 0.022451488 0.30826563 -0.14038096 -0.06409585 0.014284735 -0.16931133 0.21089895
0.2718995 0.24399817 0.26030898 0.43826014 -0.48883918 0.47417772 -0.26363736 0.09129064
-0.05983881 0.30300692 0.39915243 0.040388938 0.18139102 0.045674488 0.20564054 0.41975933
0.021729745 0.08811814 -0.29556513 -0.014229814 0.12561266 -0.17119607 0.24367607 -0.29492927
-0.13937964 -0.14574239 -0.11242919 0.31619805 -0.5209524 -0.047918517 0.24243844 0.014499535
-0.4234601 -0.4692561 0.08719524 0.270757 0.47790325 -0.11155134 0.08670166 -0.20020506
0.01955793 0.3210148 0.028845867 0.31144425 0.08597591 -0.19254062 -0.030500995 -0.24394615
-0.05718825 0.048234094 -0.24442944 -0.3130545 -0.29507464 0.23368204 -0.15760294 -0.0014512327
-0.32196653 0.25850978 0.44691184 0.39272612 0.12785748 0.13525681 -0.20654456 -0.073093854
-0.11509784 0.38839564 0.19656199 0.39076272 0.3855634 -0.03237952 -0.068919785 0.004546156
00000000: 2f82 c53c 4219 06bd d1f8 00bc fa49 f4bd
00000010: 5403 6e3d a194 70be 0848 e93d c02a 983e
00000020: 4a80 e33e 7eb4 d73e 2adf 183d 144d f73d
00000030: d894 44bd f0d3 8a3e f099 4ebe d2ca d33c
00000040: df0b 0fbe 82ae efbe 3f60 4fbd 6f8c a1be
00000050: 7e06 88be d01e 443e e207 83be 0af4 2bbe
00000060: 5043 a8be ef26 5abe 8fbe 543e 9a2f eebe
00000070: 5ed0 46bd bf97 1f3d f26f c5be 22b3 9c3e
00000080: c920 4bbe 1a0a 1abe f4c1 0c3e 9eca d13e
00000090: 6e1b f43d 8308 a23e 6c27 d5bb 7862 513d
000000a0: 058c a23d 0ae8 4b3e d14a 01be 6cd6 803e
000000b0: 61e5 cc3e f260 9abe 7037 c9bc daf2 653e
000000c0: 9937 a43e dbbf 923c a67b 2abe 0924 d5bd
000000d0: d31e 4cbe 3bd2 c13d 0bda 903e b1bf 903e
000000e0: c12f 483b 122a 34bc 21e3 213e edee b5be
000000f0: 8f00 7a3e 801f e83d 30c1 96be 484b 563e
00000100: 1f0b c3be 900d 2abe bcd0 acbe f458 1abe
00000110: 5f9e 853c 399e 0fbe 5adb b5bd a7b1 2f3e
00000120: 2914 56be f916 55be 426d 7f3e 455b f03d
00000130: a1f2 7ebb 8673 f7be 7c53 033e dc04 ce3e
00000140: a79d 523d 1672 82be df4a 863e d178 b1be
00000150: 8af6 cabc a9e8 c0be 9e0a 4dbe ea0e 9ebe
00000160: 356c 76be 77fa a93e b15b 23be 96af c3be
00000170: 14dd 00be fa38 983e d244 693e 1546 d9be
00000180: d248 2d3e c303 553e f764 b0bd f9f2 ffbd
00000190: 0657 cb3e cc8b afbe a033 02be 79b6 693d
000001a0: 8e60 a33b 169e 5e3e 254e 9dbe fd66 93bd
000001b0: 7460 9a3d 05bd 77be 66d2 923d d990 b5be
000001c0: df02 a63e 1a43 343d b829 f8be 82c5 8cbd
000001d0: 90fd 533e 1d17 11be 7954 c03e e754 243a
000001e0: a250 5abe 39a6 1b3d 62a6 dd3d 173a efbd
000001f0: 0680 d73b 2b5f 93bc 2e0b 823e dfc5 393d
00000200: 51b0 a03e 06f6 e03e 88ff 1f3e d08c 483e
00000210: a5a1 5d3e 6711 2abd 548e e53d 7b98 8ebe
00000220: dc91 3bbe ad81 da3d afff bb3e 395d d23e
00000230: 415f a63e f9be 233d b455 1dbe a7a1 093c
00000240: fb40 5fbb e8d6 71bd 96f0 2ebb e50f a73e
00000250: 6c5f 40be 2aa7 223e ca8a 16bd 30c6 afbe
00000260: de67 243e 4cab b4be f90d 303c 2567 02bf
00000270: 29cb 0b3e e13a ef3d 3f76 30be 998e 1dbe
00000280: 6f25 893e 40e9 923e aed7 a2bd bc70 a73e
00000290: 7b1b e33e 6f4a bdbe 0047 c03d 5817 79be
000002a0: acb9 813e 5700 1a3c 308e 143e 7eda b33e
000002b0: cee0 cd3e d4f3 ab3d 7514 833e 8068 ba3e
000002c0: 27b4 003e 2fec b73c fed4 9d3e 07c0 0fbe
000002d0: af44 83bd 850a 6a3c f35f 2dbe e5f5 573e
000002e0: 6936 8b3e a8da 793e 3847 853e a263 e03e
000002f0: 2149 fabe 6cc7 f23e 7afb 86be 96f6 ba3d
00000300: 8a19 75bd b923 9b3e b55d cc3e df6e 253d
00000310: 91be 393e 2c15 3b3d 6f93 523e b2ea d63e
00000320: 9402 b23c 4977 b43d 5054 97be 2a24 69bc
00000330: 9ba0 003e 064e 2fbe 3886 793e f800 97be
00000340: 89b9 0ebe 7e3d 15be 4641 e6bd b6e4 a13e
00000350: 235d 05bf 3546 44bd c841 783e 758f 6d3c
00000360: c3cf d8be 5642 f0be 6b93 b23d a9a0 8a3e
00000370: bcaf f43e 0775 e4bd a490 b13d 8e02 4dbe
00000380: f437 a03c 0d5c a43e 2b4e ec3c 9f75 9f3e
00000390: 2314 b03d 5e29 45be 39dd f9bc 05cd 79be
000003a0: 3a3e 6abd 1d91 453d b64b 7abe ae48 a0be
000003b0: 0614 97be 584a 6f3e aa62 21be 4a37 beba
000003c0: ccd8 a4be 655b 843e a1d1 e43e 6613 c93e
000003d0: 12ed 023e c380 0a3e 6b80 53be 3bb2 95bd
000003e0: 6bb8 ebbd cbdb c63e 8c47 493e 0d12 c83e
000003f0: 9168 c53e 63a0 04bd d125 8dbd ecf7 943b

linear1.bias f4 [256]
-0.15805343 0.18903422 0.13931777 -0.06873165 -0.15654342 0.15748936 -0.00022316977 0.2983758
0.20312797 0.18396994 0.108478986 0.07447951 -0.13771218 0.0008954641 -0.11314158 0.05885249
0.047081288 -0.1116571 -0.031054264 0.16560581 -0.15719332 -0.09733828 0.04063091 -0.17238094
0.06504796 0.2278044 0.04505804 -0.097460315 0.021733318 0.22345345 0.039771076 -0.0032559969
0.19851355 -0.32360342 0.037747543 -0.288896 -0.13878272 0.12651652 -0.18927173 -0.0022760022
-0.14472875 -0.09178724 -0.14264677 -0.08668664 -0.1705375 -0.09720505 0.13570882 0.15925695
-0.13070181 -0.0534737 0.2007645 -0.035651434 -0.19122666 -0.2510427 0.11169873 -0.017243104
-0.04135579 -0.37809852 -0.1609161 0.057315975 -0.1431548 -0.036763202 -0.10626746 -0.04708258
-0.026337486 0.025507852 0.15356532 -0.10476615 0.068553224 -0.15792294 -0.06854443 0.1601451
0.21495295 -0.20349666 -0.18701029 0.1682775 0.21979433 -0.08256325 0.15635389 0.15307792
-0.20721461 0.08677839 -0.28069663 -0.23921971 0.10065348 -0.08713933 0.16714814 0.01438516
-0.15951331 0.13055275 0.09148451 -0.16897768 0.03279548 -0.027599517 -0.053024035 0.26285204
-0.01867965 0.1083693 -0.1778897 -0.052666847 -0.16555177 -0.09399786 -0.08725175 -0.014120224
0.28145325 -0.14503612 0.17821814 -0.3029179 0.36886206 0.014541074 -0.18618403 0.1772222
0.33985162 -0.02064576 0.16787945 0.04666092 -0.11210169 -0.18607426 -0.013397101 -0.13448271
-0.07887664 -0.020919014 -0.21666902 -0.034572575 0.20260431 0.010651465 -0.15987596 -0.17149518
0.10254352 -0.026435772 -0.27165848 -0.079299375 0.07283728 0.07291258 -0.29092282 -0.13071968
-0.06840569 -0.16631661 -0.17027476 0.31211704 -0.104827106 -0.15625119 0.10403468 0.09155851
-0.072823875 -0.15843378 -0.15566587 0.14066568 -0.09678881 -0.16433267 -0.052984644 -0.24501695
-0.041148227 -0.09356112 0.045187086 -0.3175136 0.13589558 -0.005968835 0.109195195 0.1816666
-0.027652387 0.3589553 0.076569274 -0.11107906 0.07593545 -0.005204406 -0.047495402 0.045584403
0.050317686 0.2785826 0.17850868 -0.2424014 0.3726684 -0.15288393 0.16269557 -0.11672497
-0.051790763 0.16240379 -0.064699076 -0.20107207 -0.09423843 0.055171423 -0.04863259 0.008852903
0.07168071 -0.010390262 -0.11030897 -0.221862 -0.14384277 0.022553632 -0.1596176 -0.10516344
0.046953518 0.06723142 -0.107216865 -0.0062559247 -0.0581669 -0.031945016 -0.14719954 0.10322615
-0.14363089 0.01695386 0.19729897 0.252306 0.23143978 0.112925775 -0.09346693 0.11627382
-0.21211359 -0.027697517 -0.26049912 0.09553887 0.010652068 0.27819404 -0.1488157 -0.22303493
0.033921253 0.26262006 0.16551912 -0.04587597 -0.1673087 -0.13249056 0.018155457 -0.28435498
-0.11239671 -0.2016852 -0.052694045 -0.23967877 -0.12407007 0.10226462 0.082112685 -0.050515782
-0.01731762 -0.2422641 0.055512473 0.102081165 0.023125567 -0.065699816 -0.15718582 -0.021766441
0.03860959 -0.13976082 0.010864395 -0.17223187 -0.17138714 0.02106558 -0.075744174 -0.04806852
0.05266626 -0.19477588 0.073299035 0.20860055 0.024358599 0.14857505 -0.014544365 0.29002917
00000000: c2d8 21be 3092 413e 51a9 0e3e 2ec3 8cbd
00000010: eb4c 20be e444 213e ae02 6ab9 b6c4 983e
00000020: c700 503e 9e62 3c3e 3b2a de3d b788 983d
00000030: 6c04 0dbe 94bd 6a3a c6b6 e7bd 4f0f 713d
00000040: 4fd8 403d 7aac e4bd 8365 febc 9294 293e
00000050: 49f7 20be 4b59 c7bd 996c 263d a184 30be
00000060: dd37 853d 8e45 693e c88e 383d 4699 c7bd
00000070: 120a b23c fbd0 643e ffe6 223d 9062 55bb
00000080: 2347 4b3e 59af a5be 2b9d 1a3d 2dea 93be
00000090: 0f1d 0ebe 8c8d 013e 73d0 41be fb28 15bb
000000a0: c633 14be f3fa bbbd ff11 12be c488 b1bd
000000b0: 62a1 2ebe 7113 c7bd 41f7 0a3e 4114 233e
000000c0: b2d6 05be 3d07 5bbd 3695 4d3e 3d07 12bd
000000d0: ecd0 43be ab88 80be 4ec2 e43d 6941 8dbc
000000e0: b064 29bd 2196 c1be 31c7 24be 28c4 6a3d
000000f0: 2c97 12be 0395 16bd c1a2 d9bd aad9 40bd
00000100: b6c1 d7bc d8f5 d03c 3a40 1d3e a38f d6bd
00000110: a265 8c3d 8db6 21be 0661 8cbd 14fd 233e
00000120: a01c 5c3e 6e61 50be a07f 3fbe f050 2c3e
00000130: c411 613e ec16 a9bd 3c1b 203e 75c0 1c3e
00000140: 1130 54be deb8 b13d 78b7 8fbe 03f6 74be
00000150: 6923 ce3d 1b76 b2bd e228 2b3e bcaf 6b3c
00000160: 7557 23be 9faf 053e 3b5c bb3d 7c08 2dbe
00000170: 8e54 063d 6218 e2bc bb2f 59bd 8b94 863e
00000180: 1106 99bc b9f0 dd3d b828 36be 31b9 57bd
00000190: 6786 29be f381 c0bd 0cb1 b2bd 8358 67bc
000001a0: a41a 903e 5984 14be d17e 363e 0e18 9bbe
000001b0: 7ddb bc3e af3d 6e3c 07a7 3ebe bd79 353e
000001c0: 0801 ae3e 4c21 a9bc 97e8 2b3e 851f 3f3d
000001d0: 9295 e5bd 408a 3ebe 847f 5bbc d6b5 09be
000001e0: 138a a1bd 5a5e abbc 7cde 5dbe f99b 0dbd
000001f0: 8177 4f3e 7b83 2e3c 86b6 23be 6f9c 2fbe
00000200: 5602 d23d d58f d8bc d216 8bbe b667 a2bd
00000210: b62b 953d 3153 953d d6f3 94be 61db 05be
00000220: 4818 8cbd e74e 2abe 825c 2ebe cecd 9f3e
00000230: 98af d6bd 5000 20be 2210 d53d 0783 bb3d
00000240: af24 95bd 773c 22be e066 1fbe aa0a 103e
00000250: 3639 c6bd d346 28be 6d06 59bd b9e5 7abe
00000260: 0b8b 28bd f99c bfbd 1816 393d 2591 a2be
00000270: 3628 0b3e 3896 c3bb bba1 df3d cf06 3a3e
00000280: 4287 e2bc fdc8 b73e 5ad0 9c3d 6b7d e3bd
00000290: 0c84 9b3d b989 aabb 8a8a 42bd b6b6 3a3d
000002a0: eb19 4e3d 61a2 8e3e fbca 363e 1338 78be
000002b0: 64ce be3e 9b8d 1cbe ab99 263e 800d efbd
000002c0: 8d22 54bd 2e4d 263e f380 84bd d6e5 4dbe
000002d0: 1400 c1bd 6efb 613d f732 47bd c40b 113c
000002e0: 56cd 923d eb3b 2abc abe9 e1bd cb2f 63be
000002f0: 854b 13be 65c2 b83c cc72 23be ee5f d7bd
00000300: 5552 403d a0b0 893d 8494 dbbd 80fe ccbb
00000310: 6a40 6ebd c7d8 02bd 7abb 16be 3b68 d33d
00000320: fa13 13be d2e2 8a3c be08 4a3e 412e 813e
00000330: 8dfe 6c3e a145 e73d 976b bfbd f820 ee3d
00000340: 4e34 59be e7e5 e2bc 2460 85be e2a9 c33d
00000350: 0386 2e3c 736f 8e3e 2563 18be 4563 64be
00000360: 03f1 0a3d 2376 863e d87d 293e 71e8 3bbd
00000370: f952 2bbe 9bab 07be c1ba 943c fa96 91be
00000380: 3f30 e6bd 9186 4ebe b6d5 57bd 5a6e 75be
00000390: 7318 febd 1d70 d13d b22a a83d a3e9 4ebd
000003a0: aedd 8dbc 1514 78be 0c61 633d ee0f d13d
000003b0: d471 bd3c a08d 86bd 52f5 20be 894f b2bc
000003c0: 1725 1e3d 761d 0fbe 9300 323c 8d5d 30be
000003d0: 1c80 2fbe b991 ac3c c31f 9bbd 7fe3 44bd
000003e0: 94b8 573d 5473 47be ce1d 963d 629b 553e
000003f0: af8b c73c 0f24 183e 7d4b 6ebc b47e 943e

linear2.weight f4 [3, 256]
-0.12159965 -0.14149304 0.054078016 -0.17572938 0.024534505 -0.013970576 -0.17895481 -0.07562497
-0.07472275 0.052754372 -0.102131575 -0.1395665 -0.023825116 0.038900387 -0.2350672 -0.11444268
-0.21200007 -0.22856967 0.1252949 -0.10137665 -0.091943294 0.12547629 -0.14693388 -0.065278694
0.05346761 0.01182808 0.0031629356 0.08125535 0.106643066 0.012146336 -0.16413467 -0.10819859
0.009005498 -0.016673127 -0.27604496 -0.21012965 -0.17920779 0.024022378 -0.11356868 -0.20688197
-0.15609936 -0.18109246 -0.03295248 0.2015329 -0.07072691 -0.20218289 -0.009845095 -0.2111178
-0.17553377 -0.05940654 -0.10133476 -0.21181874 -0.23244564 -0.08461602 -0.17943807 -0.12855777
-0.14503238 0.14350429 0.049490917 -0.16268343 0.009212201 0.20771599 -0.20339078 0.029231414
0.18258598 -0.09218828 -0.1937231 -0.17308147 -0.040193513 -0.022742804 -0.102383316 -0.117030255
-0.12882793 -0.006343453 0.058354802 0.026808305 -0.15678227 -0.31814796 0.0072357864 -0.09214231
0.20136288 -0.03864323 0.039630055 0.051443126 0.13678032 0.07805821 0.05415159 -0.07059675
-0.07101565 -0.01342895 -0.1131902 -0.36921853 -0.08846321 -0.010363713 0.010249914 -0.100255385
-0.053719584 -0.36740425 -0.07581784 -0.060495432 -0.056647833 -0.17013632 -0.24008939 -0.08531737
-0.19816524 -0.15044427 -0.11101607 0.017497681 -0.14428253 -0.004548419 -0.020243354 -0.118304536
-0.072667696 -0.09247944 -0.057502333 -0.2780151 0.17409772 0.12185959 -0.16194709 -0.12944178
0.084056996 -0.20481206 0.04423405 -0.09237019 -0.062605985 -0.12557197 -0.2532219 0.04156051
-0.25145876 -0.19927071 0.027758794 -0.07128378 -0.10298124 -0.26307768 -0.15649167 -0.06743372
0.006233276 0.09114254 -0.22694966 -0.17171171 -0.19373819 0.08363802 -0.037752077 -0.04310759
-0.11522852 0.12621067 0.04439741 -0.036318608 0.00580709 0.087480776 -0.06567496 0.22104539
-0.04119996 -0.10035913 -0.19686265 0.012761928 -0.1638971 0.06870406 -0.0036558695 -0.13782133
0.0038104919 0.040884346 -0.08510951 -0.055696927 0.13967358 -0.14136568 -0.24107984 -0.07462263
-0.2113794 -0.17597577 -0.1660997 -0.0754691 -0.22056447 -0.039172787 -0.1904504 -0.08425656
-0.08238302 -0.13831449 0.007755791 -0.012379598 -0.12503967 -0.06541736 -0.08309132 -0.061275095
-0.3022756 -0.00216909 -0.112984 -0.050940808 -0.0435786 -0.3058581 0.0012288502 0.0303276
-0.08245118 0.017955799 0.075816035 -0.03951324 0.027135532 -0.22138016 0.025922665 -0.09105812
-0.041665778 -0.014339241 -0.023047727 -0.005158168 -0.1256222 -0.024796374 -0.23167038 0.0067679575
0.15161313 0.025861854 -0.18778707 -0.056575816 -0.10438153 0.002972761 0.06992843 -0.15566972
-0.24119177 -0.101810046 -0.07762013 -0.057990517 -0.2189802 -0.010345772 -0.113276206 0.08010201
-0.021163577 -0.30977523 -0.26426888 -0.12020064 -0.20785125 -0.08740354 -0.11585297 -0.21246167
-0.039567363 -0.03957285 -0.21242972 -0.08604343 -0.053696852 -0.06821063 -0.10792559 -0.05068916
-0.32372543 -0.1871229 0.014203802 -0.077111706 -0.14374442 -0.16439152 -0.18317568 -0.19340554
0.06358077 -0.10918531 0.103771634 -0.14991704 -0.090115525 -0.019898413 0.028055435 -0.13183644
00000000: 3d09 f9bd 8de3 10be e980 5d3d 67f2 33be
00000010: 96fc c83c d8e4 64bc ee3f 37be 44e1 9abd
00000020: 3e08 99bd f814 583d 5c2a d1bd 85ea 0ebe
00000030: e42c c3bc 0356 1f3d 75b5 70be ec60 eabd
00000040: 8c16 59be 2b0e 6abe 4e4d 003e 909e cfbd
00000050: c44c bcbd db7c 003e d675 16be d6b0 85bd
00000060: da00 5b3d 90ca 413c 4149 4f3b 3469 a63d
00000070: ae67 da3d 6d01 473c eb12 28be 3997 ddbd
00000080: cc8b 133c 1596 88bc c455 8dbe 3a2c 57be
00000090: 3f82 37be 94ca c43c b296 e8bd ded8 53be
000000a0: 83d8 1fbe 4d70 39be 2ef9 06bd a45e 4e3e
000000b0: 45d9 90bd 0809 4fbe 524d 21bc 442f 58be
000000c0: 20bf 33be 4654 73bd 9988 cfbd 03e7 58be
000000d0: 3b06 6ebe 2a4b adbd 9dbe 37be a6a4 03be
000000e0: 5e83 14be caf2 123e fdb6 4a3d 7c96 26be
000000f0: c6ee 163c 80b3 543e ac45 50be b876 ef3c
00000100: d2f7 3a3e 35cd bcbd 595f 46be 453c 31be
00000110: f4a1 24bd 1e4f babc 58ae d1bd 8fad efbd
00000120: 78eb 03be bedc cfbb 7205 6f3d 179d db3c
00000130: 888b 20be 4ae4 a2be 2d1a ed3b 1cb5 bcbd
00000140: 1232 4e3e 5d48 1ebd 2053 223d 07b6 523d
00000150: 2410 0c3e fcdc 9f3d 0fce 5d3d 0795 90bd
00000160: a770 91bd 1905 5cbc 43d0 e7bd 360a bdbe
00000170: 332c b5bd 90cc 29bc 41ef 273c b252 cdbd
00000180: 1109 5cbd 691c bcbe 6246 9bbd 0fca 77bd
00000190: 8f07 68bd 3738 2ebe fed9 75be e0ba aebd
000001a0: d4eb 4abe 100e 1abe 655c e3bd 4c57 8f3c
000001b0: cdbe 13be e70a 95bb 64d5 a5bc a649 f2bd
000001c0: cdd2 94bd dc65 bdbd 9187 6bbd ff57 8ebe
000001d0: ac46 323e 8591 f93d 75d5 25be 638c 04be
000001e0: 1326 ac3d 41ba 51be c32e 353d 952c bdbd
000001f0: 9137 80bd f095 00be 4da6 81be 5a3b 2a3d
00000200: 34bf 80be 9f0d 4cbe 6966 e33c 3bfd 91bd
00000210: d4e7 d2bd 1eb2 86be 5a3f 20be b11a 8abd
00000220: 8240 cc3b f1a8 ba3d 7e65 68be 32d5 2fbe
00000230: 4e63 46be 694a ab3d eca1 1abd 9691 30bd
00000240: eefc ebbd 5f3d 013e 0fda 353d d2c2 14bd
00000250: 6749 be3b 1f29 b33d 9880 86bd b959 623e
00000260: 4ac1 28bd 1689 cdbd 5d96 49be 6817 513c
00000270: a4d4 27be b7b4 8c3d 5097 6fbb 0921 0dbe
00000280: 72b9 793b 5876 273d e54d aebd 7622 64bd
00000290: 9706 0f3e 2ac2 10be a2dd 76be c0d3 98bd
000002a0: d773 58be fe32 34be 0a16 2abe 8b8f 9abd
000002b0: a7db 61be a573 20bd 6e05 43be b48e acbd
000002c0: 6eb8 a8bd 50a2 0dbe 4a24 fe3b ccd3 4abc
000002d0: 660a 00be 89f9 85bd c82b aabd 98fb 7abd
000002e0: dec3 9abe 4b27 0ebb 2864 e7bd 4fa7 50bd
000002f0: 797f 32bd 6f99 9cbe 5f11 a13a 9671 f83c
00000300: 2adc a8bd 0a18 933c 7045 9b3d a3d8 21bd
00000310: 564b de3c 7bb1 62be c55b d43c ae7c babd
00000320: bca9 2abd 23ef 6abc 96ce bcbc d905 a9bb
00000330: 1ba3 00be c421 cbbc 003b 6dbe bec5 dd3b
00000340: 7940 1b3e 3ddc d33c 414b 40be 0bbc 67bd
00000350: fcc5 d5bd a7d2 423b a336 8f3d e267 1fbe
00000360: fafa 76be c981 d0bd 4df7 9ebd 7787 6dbd
00000370: 583c 60be 5081 29bc 5bfd e7bd 860c a43d
00000380: 3d5f adbc dc9a 9ebe 404e 87be c12b f6bd
00000390: f5d6 54be a100 b3bd 5244 edbd 8d8f 59be
000003a0: 6311 22bd 2417 22bd 2d87 59be 8a37 b0bd
000003b0: 3bf1 5bbd 04b2 8bbd 1708 ddbd 709f 4fbd
000003c0: 57bf a5be 259d 3fbe 10b7 683c beec 9dbd
000003d0: bd31 13be 4056 28be 6892 3bbe 1a0c 46be
000003e0: a236 823d 8c9c dfbd 3986 d43d da83 19be
000003f0: 7d8e b8bd ff01 a3bc 83d4 e53c 2200 07be

linear2.bias f4 [3]
-0.17892116 -0.010760472 -0.18491933
00000000: 1c37 37be b14c 30bc 7e5b 3dbe
